Device: cuda
StateTransitionPerturbationModel(
  (loss_fn): SamplesLoss()
  (gene_decoder): LatentToGeneDecoder(
    (decoder): Sequential(
      (0): Linear(in_features=2000, out_features=1024, bias=True)
      (1): LayerNorm((1024,), eps=1e-05, elementwise_affine=True)
      (2): GELU(approximate='none')
      (3): Dropout(p=0.1, inplace=False)
      (4): Linear(in_features=1024, out_features=1024, bias=True)
      (5): LayerNorm((1024,), eps=1e-05, elementwise_affine=True)
      (6): GELU(approximate='none')
      (7): Dropout(p=0.1, inplace=False)
      (8): Linear(in_features=1024, out_features=512, bias=True)
      (9): LayerNorm((512,), eps=1e-05, elementwise_affine=True)
      (10): GELU(approximate='none')
      (11): Dropout(p=0.1, inplace=False)
      (12): Linear(in_features=512, out_features=2000, bias=True)
      (13): ReLU()
    )
  )
  (pert_encoder): Sequential(
    (0): Linear(in_features=2024, out_features=328, bias=True)
  )
  (basal_encoder): Sequential(
    (0): Linear(in_features=2000, out_features=328, bias=True)
  )
  (transformer_backbone): LlamaBidirectionalModel(
    (embed_tokens): Embedding(32000, 328, padding_idx=0)
    (layers): ModuleList(
      (0-7): 8 x LlamaDecoderLayer(
        (self_attn): LlamaAttention(
          (q_proj): Linear(in_features=328, out_features=768, bias=False)
          (k_proj): Linear(in_features=328, out_features=768, bias=False)
          (v_proj): Linear(in_features=328, out_features=768, bias=False)
          (o_proj): Linear(in_features=768, out_features=328, bias=False)
        )
        (mlp): LlamaMLP(
          (gate_proj): Linear(in_features=328, out_features=3072, bias=False)
          (up_proj): Linear(in_features=328, out_features=3072, bias=False)
          (down_proj): Linear(in_features=3072, out_features=328, bias=False)
          (act_fn): SiLUActivation()
        )
        (input_layernorm): LlamaRMSNorm((328,), eps=1e-06)
        (post_attention_layernorm): LlamaRMSNorm((328,), eps=1e-06)
      )
    )
    (norm): LlamaRMSNorm((328,), eps=1e-06)
    (rotary_emb): NoRoPE()
  )
  (project_out): Sequential(
    (0): Linear(in_features=328, out_features=2000, bias=True)
  )
  (batch_encoder): Embedding(56, 328)
  (relu): ReLU()
)
Model loaded.
Gene index size: 2000, KDs available: 2024
Control cells: (4976, 2000)

Secretory panel:
  Regulators: ['HSPA5', 'ATF4', 'XBP1', 'SEC24A']
  Targets:    ['ARFGEF2', 'MFGE8', 'PDIA3', 'CALR', 'ERO1A']
  Pathway KDs: ['TRAPPC3', 'TRAPPC5', 'SRP54', 'HSPA5']
  Neg ctrl KDs: ['MYC', 'BRCA1', 'CHEK1']

Ribosome panel:
  Regulators: ['RPL10', 'RPS6', 'RPL12', 'RPS8']
…
